nohup: ignoring input
Namespace(batchSize=64, beta1=0.9, beta2=0.999, lr=0.0001, momentum=0.9, nEpochs=200, seed=123, threads=4, valBatchSize=10)
===> Loading datasets
===> Building model
----------------------------------------------------------------
        Layer (type)               Output Shape         Param #
================================================================
            Conv2d-1         [-1, 64, 224, 224]            1792
              ReLU-2         [-1, 64, 224, 224]               0
            Conv2d-3         [-1, 64, 224, 224]           36928
              ReLU-4         [-1, 64, 224, 224]               0
         MaxPool2d-5         [-1, 64, 112, 112]               0
            Conv2d-6        [-1, 128, 112, 112]           73856
              ReLU-7        [-1, 128, 112, 112]               0
            Conv2d-8        [-1, 128, 112, 112]          147584
              ReLU-9        [-1, 128, 112, 112]               0
        MaxPool2d-10          [-1, 128, 56, 56]               0
           Conv2d-11          [-1, 256, 56, 56]          295168
             ReLU-12          [-1, 256, 56, 56]               0
           Conv2d-13          [-1, 256, 56, 56]          590080
             ReLU-14          [-1, 256, 56, 56]               0
           Conv2d-15          [-1, 256, 56, 56]          590080
             ReLU-16          [-1, 256, 56, 56]               0
        MaxPool2d-17          [-1, 256, 28, 28]               0
           Conv2d-18          [-1, 512, 28, 28]         1180160
             ReLU-19          [-1, 512, 28, 28]               0
           Conv2d-20          [-1, 512, 28, 28]         2359808
             ReLU-21          [-1, 512, 28, 28]               0
           Conv2d-22          [-1, 512, 28, 28]         2359808
             ReLU-23          [-1, 512, 28, 28]               0
        MaxPool2d-24          [-1, 512, 14, 14]               0
           Conv2d-25          [-1, 512, 14, 14]         2359808
             ReLU-26          [-1, 512, 14, 14]               0
           Conv2d-27          [-1, 512, 14, 14]         2359808
             ReLU-28          [-1, 512, 14, 14]               0
           Conv2d-29          [-1, 512, 14, 14]         2359808
             ReLU-30          [-1, 512, 14, 14]               0
        MaxPool2d-31            [-1, 512, 7, 7]               0
             BCNN-32               [-1, 262144]               0
           Linear-33                  [-1, 163]        42729635
           Linear-34                    [-1, 5]         1310725
           Linear-35                   [-1, 12]         3145740
           Linear-36                   [-1, 10]         2621450
           Linear-37                   [-1, 15]         3932175
           Linear-38                    [-1, 6]         1572870
       Classifier-39  [[-1, 163], [-1, 5], [-1, 12], [-1, 10], [-1, 15], [-1, 6]]               0
================================================================
Total params: tensor(7.0027e+07)
Trainable params: tensor(7.0027e+07)
Non-trainable params: tensor(0)
----------------------------------------------------------------
Train Epoch: 1 [640/23167 (3%)]	Loss: 4.612240 1.541745 2.197871 2.017554 2.193457 1.498952
…
