Namespace(batchSize=64, beta1=0.9, beta2=0.999, gpu='1', lr=0.001, momentum=0.9, nEpochs=1000, seed=123, testBatchSize=10, threads=4)
===> Loading datasets
===> Building model
----------------------------------------------------------------
        Layer (type)               Output Shape         Param #
================================================================
            Conv2d-1         [-1, 64, 112, 112]            9408
       BatchNorm2d-2         [-1, 64, 112, 112]             128
              ReLU-3         [-1, 64, 112, 112]               0
         MaxPool2d-4           [-1, 64, 56, 56]               0
            Conv2d-5           [-1, 64, 56, 56]            4096
       BatchNorm2d-6           [-1, 64, 56, 56]             128
              ReLU-7           [-1, 64, 56, 56]               0
            Conv2d-8           [-1, 64, 56, 56]           36864
       BatchNorm2d-9           [-1, 64, 56, 56]             128
             ReLU-10           [-1, 64, 56, 56]               0
           Conv2d-11          [-1, 256, 56, 56]           16384
      BatchNorm2d-12          [-1, 256, 56, 56]             512
           Conv2d-13          [-1, 256, 56, 56]           16384
      BatchNorm2d-14          [-1, 256, 56, 56]             512
             ReLU-15          [-1, 256, 56, 56]               0
       Bottleneck-16          [-1, 256, 56, 56]               0
           Conv2d-17           [-1, 64, 56, 56]           16384
      BatchNorm2d-18           [-1, 64, 56, 56]             128
             ReLU-19           [-1, 64, 56, 56]               0
           Conv2d-20           [-1, 64, 56, 56]           36864
      BatchNorm2d-21           [-1, 64, 56, 56]             128
             ReLU-22           [-1, 64, 56, 56]               0
           Conv2d-23          [-1, 256, 56, 56]           16384
      BatchNorm2d-24          [-1, 256, 56, 56]             512
             ReLU-25          [-1, 256, 56, 56]               0
       Bottleneck-26          [-1, 256, 56, 56]               0
           Conv2d-27           [-1, 64, 56, 56]           16384
      BatchNorm2d-28           [-1, 64, 56, 56]             128
             ReLU-29           [-1, 64, 56, 56]               0
           Conv2d-30           [-1, 64, 56, 56]           36864
      BatchNorm2d-31           [-1, 64, 56, 56]             128
             ReLU-32           [-1, 64, 56, 56]               0
           Conv2d-33          [-1, 256, 56, 56]           16384
      BatchNorm2d-34          [-1, 256, 56, 56]             512
             ReLU-35          [-1, 256, 56, 56]               0
       Bottleneck-36          [-1, 256, 56, 56]               0
           Conv2d-37          [-1, 128, 56, 56]           32768
      BatchNorm2d-38          [-1, 128, 56, 56]             256
             ReLU-39          [-1, 128, 56, 56]               0
           Conv2d-40          [-1, 128, 28, 28]          147456
      BatchNorm2d-41          [-1, 128, 28, 28]             256
             ReLU-42          [-1, 128, 28, 28]               0
           Conv2d-43          [-1, 512, 28, 28]           65536
      BatchNorm2d-44          [-1, 512, 28, 28]            1024
           Conv2d-45          [-1, 512, 28, 28]          131072
      BatchNorm2d-46          [-1, 512, 28, 28]            1024
             ReLU-47          [-1, 512, 28, 28]               0
       Bottleneck-48          [-1, 512, 28, 28]               0
           Conv2d-49          [-1, 128, 28, 28]           65536
      BatchNorm2d-50          [-1, 128, 28, 28]             256
             ReLU-51          [-1, 128, 28, 28]               0
           Conv2d-52          [-1, 128, 28, 28]          147456
      BatchNorm2d-53          [-1, 128, 28, 28]             256
             ReLU-54          [-1, 128, 28, 28]               0
           Conv2d-55          [-1, 512, 28, 28]           65536
      BatchNorm2d-56          [-1, 512, 28, 28]            1024
             ReLU-57          [-1, 512, 28, 28]               0
       Bottleneck-58          [-1, 512, 28, 28]               0
           Conv2d-59          [-1, 128, 28, 28]           65536
      BatchNorm2d-60          [-1, 128, 28, 28]             256
             ReLU-61          [-1, 128, 28, 28]               0
           Conv2d-62          [-1, 128, 28, 28]          147456
      BatchNorm2d-63          [-1, 128, 28, 28]             256
             ReLU-64          [-1, 128, 28, 28]               0
           Conv2d-65          [-1, 512, 28, 28]           65536
      BatchNorm2d-66          [-1, 512, 28, 28]            1024
             ReLU-67          [-1, 512, 28, 28]               0
       Bottleneck-68          [-1, 512, 28, 28]               0
           Conv2d-69          [-1, 128, 28, 28]           65536
      BatchNorm2d-70          [-1, 128, 28, 28]             256
             ReLU-71          [-1, 128, 28, 28]               0
           Conv2d-72          [-1, 128, 28, 28]          147456
      BatchNorm2d-73          [-1, 128, 28, 28]             256
             ReLU-74          [-1, 128, 28, 28]               0
           Conv2d-75          [-1, 512, 28, 28]           65536
      BatchNorm2d-76          [-1, 512, 28, 28]            1024
             ReLU-77          [-1, 512, 28, 28]               0
       Bottleneck-78          [-1, 512, 28, 28]               0
           Conv2d-79          [-1, 256, 28, 28]          131072
      BatchNorm2d-80          [-1, 256, 28, 28]             512
             ReLU-81          [-1, 256, 28, 28]               0
           Conv2d-82          [-1, 256, 14, 14]          589824
      BatchNorm2d-83          [-1, 256, 14, 14]             512
             ReLU-84          [-1, 256, 14, 14]               0
           Conv2d-85         [-1, 1024, 14, 14]          262144
      BatchNorm2d-86         [-1, 1024, 14, 14]            2048
           Conv2d-87         [-1, 1024, 14, 14]          524288
      BatchNorm2d-88         [-1, 1024, 14, 14]            2048
             ReLU-89         [-1, 1024, 14, 14]               0
       Bottleneck-90         [-1, 1024, 14, 14]               0
           Conv2d-91          [-1, 256, 14, 14]          262144
      BatchNorm2d-92          [-1, 256, 14, 14]             512
             ReLU-93          [-1, 256, 14, 14]               0
           Conv2d-94          [-1, 256, 14, 14]          589824
      BatchNorm2d-95          [-1, 256, 14, 14]             512
             ReLU-96          [-1, 256, 14, 14]               0
           Conv2d-97         [-1, 1024, 14, 14]          262144
      BatchNorm2d-98         [-1, 1024, 14, 14]            2048
             ReLU-99         [-1, 1024, 14, 14]               0
      Bottleneck-100         [-1, 1024, 14, 14]               0
          Conv2d-101          [-1, 256, 14, 14]          262144
     BatchNorm2d-102          [-1, 256, 14, 14]             512
            ReLU-103          [-1, 256, 14, 14]               0
          Conv2d-104          [-1, 256, 14, 14]          589824
     BatchNorm2d-105          [-1, 256, 14, 14]             512
            ReLU-106          [-1, 256, 14, 14]               0
          Conv2d-107         [-1, 1024, 14, 14]          262144
     BatchNorm2d-108         [-1, 1024, 14, 14]            2048
            ReLU-109         [-1, 1024, 14, 14]               0
      Bottleneck-110         [-1, 1024, 14, 14]               0
          Conv2d-111          [-1, 256, 14, 14]          262144
     BatchNorm2d-112          [-1, 256, 14, 14]             512
            ReLU-113          [-1, 256, 14, 14]               0
          Conv2d-114          [-1, 256, 14, 14]          589824
     BatchNorm2d-115          [-1, 256, 14, 14]             512
            ReLU-116          [-1, 256, 14, 14]               0
          Conv2d-117         [-1, 1024, 14, 14]          262144
     BatchNorm2d-118         [-1, 1024, 14, 14]            2048
            ReLU-119         [-1, 1024, 14, 14]               0
      Bottleneck-120         [-1, 1024, 14, 14]               0
          Conv2d-121          [-1, 256, 14, 14]          262144
     BatchNorm2d-122          [-1, 256, 14, 14]             512
            ReLU-123          [-1, 256, 14, 14]               0
          Conv2d-124          [-1, 256, 14, 14]          589824
     BatchNorm2d-125          [-1, 256, 14, 14]             512
            ReLU-126          [-1, 256, 14, 14]               0
          Conv2d-127         [-1, 1024, 14, 14]          262144
     BatchNorm2d-128         [-1, 1024, 14, 14]            2048
            ReLU-129         [-1, 1024, 14, 14]               0
      Bottleneck-130         [-1, 1024, 14, 14]               0
          Conv2d-131          [-1, 256, 14, 14]          262144
     BatchNorm2d-132          [-1, 256, 14, 14]             512
            ReLU-133          [-1, 256, 14, 14]               0
          Conv2d-134          [-1, 256, 14, 14]          589824
     BatchNorm2d-135          [-1, 256, 14, 14]             512
            ReLU-136          [-1, 256, 14, 14]               0
          Conv2d-137         [-1, 1024, 14, 14]          262144
     BatchNorm2d-138         [-1, 1024, 14, 14]            2048
            ReLU-139         [-1, 1024, 14, 14]               0
      Bottleneck-140         [-1, 1024, 14, 14]               0
          Conv2d-141          [-1, 512, 14, 14]          524288
     BatchNorm2d-142          [-1, 512, 14, 14]            1024
            ReLU-143          [-1, 512, 14, 14]               0
          Conv2d-144            [-1, 512, 7, 7]         2359296
     BatchNorm2d-145            [-1, 512, 7, 7]            1024
            ReLU-146            [-1, 512, 7, 7]               0
          Conv2d-147           [-1, 2048, 7, 7]         1048576
     BatchNorm2d-148           [-1, 2048, 7, 7]            4096
          Conv2d-149           [-1, 2048, 7, 7]         2097152
     BatchNorm2d-150           [-1, 2048, 7, 7]            4096
            ReLU-151           [-1, 2048, 7, 7]               0
      Bottleneck-152           [-1, 2048, 7, 7]               0
          Conv2d-153            [-1, 512, 7, 7]         1048576
     BatchNorm2d-154            [-1, 512, 7, 7]            1024
            ReLU-155            [-1, 512, 7, 7]               0
          Conv2d-156            [-1, 512, 7, 7]         2359296
     BatchNorm2d-157            [-1, 512, 7, 7]            1024
            ReLU-158            [-1, 512, 7, 7]               0
          Conv2d-159           [-1, 2048, 7, 7]         1048576
     BatchNorm2d-160           [-1, 2048, 7, 7]            4096
            ReLU-161           [-1, 2048, 7, 7]               0
      Bottleneck-162           [-1, 2048, 7, 7]               0
          Conv2d-163            [-1, 512, 7, 7]         1048576
     BatchNorm2d-164            [-1, 512, 7, 7]            1024
            ReLU-165            [-1, 512, 7, 7]               0
          Conv2d-166            [-1, 512, 7, 7]         2359296
     BatchNorm2d-167            [-1, 512, 7, 7]            1024
            ReLU-168            [-1, 512, 7, 7]               0
          Conv2d-169           [-1, 2048, 7, 7]         1048576
     BatchNorm2d-170           [-1, 2048, 7, 7]            4096
            ReLU-171           [-1, 2048, 7, 7]               0
      Bottleneck-172           [-1, 2048, 7, 7]               0
       AvgPool2d-173           [-1, 2048, 1, 1]               0
          Linear-174                 [-1, 1024]         2098176
            ReLU-175                 [-1, 1024]               0
         Dropout-176                 [-1, 1024]               0
          Linear-177                  [-1, 512]          524800
            ReLU-178                  [-1, 512]               0
         Dropout-179                  [-1, 512]               0
          Linear-180                  [-1, 163]           83619
          Linear-181                 [-1, 1024]         2098176
            ReLU-182                 [-1, 1024]               0
         Dropout-183                 [-1, 1024]               0
          Linear-184                  [-1, 512]          524800
            ReLU-185                  [-1, 512]               0
         Dropout-186                  [-1, 512]               0
          Linear-187                    [-1, 5]            2565
          Linear-188                 [-1, 1024]         2098176
            ReLU-189                 [-1, 1024]               0
         Dropout-190                 [-1, 1024]               0
          Linear-191                  [-1, 512]          524800
            ReLU-192                  [-1, 512]               0
         Dropout-193                  [-1, 512]               0
          Linear-194                   [-1, 12]            6156
          Linear-195                 [-1, 1024]         2098176
            ReLU-196                 [-1, 1024]               0
         Dropout-197                 [-1, 1024]               0
          Linear-198                  [-1, 512]          524800
            ReLU-199                  [-1, 512]               0
         Dropout-200                  [-1, 512]               0
          Linear-201                   [-1, 10]            5130
          Linear-202                 [-1, 1024]         2098176
            ReLU-203                 [-1, 1024]               0
         Dropout-204                 [-1, 1024]               0
          Linear-205                  [-1, 512]          524800
            ReLU-206                  [-1, 512]               0
         Dropout-207                  [-1, 512]               0
          Linear-208                   [-1, 15]            7695
          Linear-209                 [-1, 1024]         2098176
            ReLU-210                 [-1, 1024]               0
         Dropout-211                 [-1, 1024]               0
          Linear-212                  [-1, 512]          524800
            ReLU-213                  [-1, 512]               0
         Dropout-214                  [-1, 512]               0
          Linear-215                    [-1, 6]            3078
      Classifier-216  [[-1, 163], [-1, 5], [-1, 12], [-1, 10], [-1, 15], [-1, 6]]               0
================================================================
Total params: tensor(3.9354e+07)
Trainable params: tensor(3.9354e+07)
Non-trainable params: tensor(0)
----------------------------------------------------------------
Train Epoch: 1 [640/23167 (3%)]	Loss: 3.824568 0.980767 2.008410 1.770220 1.068133 1.218876
…
